Accelerometer.tflite (tflite, 38496 bytes, 6 tensors)

sequential_1/dense_5/BiasAdd/ReadVariableOp f4 [5]
-0.05093907 -0.033367395 -0.031148968 0.020045659 0.064220965
00000000: 7ca5 50bd 40ac 08bd 1f2c ffbc cb36 a43c
00000010: 4886 833d

sequential_1/dense_4/BiasAdd/ReadVariableOp f4 [64]
0.039419957 0.033606272 0.07860991 0.03053558 0.02966041 0.05789631 0.10850198 0.0729471
0.0 0.055316616 0.034027487 0.023360435 -0.0040170914 0.0 -0.011488183 0.04468686
0.007306761 0.0678066 0.059675295 0.059271645 0.022079088 0.06763941 0.07025423 0.03276932
0.043378673 0.04812181 0.036712263 0.059606344 -0.022617135 0.05736449 0.055079058 0.07403247
0.036036365 0.015381425 0.046393495 0.044329017 0.055365413 0.021342332 0.006599389 -0.01596169
0.07384742 0.034016203 -0.029232787 0.052067082 0.07586988 0.07132455 0.0074235154 -0.007995544
0.026555473 0.024219597 0.05112544 0.05868754 0.032752097 0.033676025 0.05938764 0.07405829
0.04232263 0.06767616 -0.00094686815 -0.0074222116 -0.0031168673 0.06596064 0.08868055 0.03359462
00000000: d276 213d bba6 093d 3cfe a03d c125 fa3c
00000010: 63fa f23c ae24 6d3d 4936 de3d 4a65 953d
00000020: 0000 0000 ad93 623d 6860 0b3d 625e bf3c
00000030: cea1 83bb 0000 0000 ef38 3cbc 9209 373d
00000040: 8e6d ef3b 30de 8a3d 156e 743d d3c6 723d
00000050: 34df b43c 8886 8a3d 73e1 8f3d 1f39 063d
00000060: d6ad 313d 601b 453d 995f 163d c825 743d
00000070: 9247 b9bc 07f7 6a3d 949a 613d 569e 973d
00000080: de9a 133d 5f02 7c3c 1b07 3e3d 5892 353d
00000090: d8c6 623d 1dd6 ae3c b03f d83b 17c2 82bc
000000a0: 513d 973d 9354 0b3d 9979 efbc 4b44 553d
000000b0: ab61 9b3d 9b12 923d f640 f33b beff 02bc
000000c0: dd8a d93c 2d68 c63c e968 513d 5962 703d
000000d0: 1027 063d dfef 093d 7440 733d dfab 973d
000000e0: 7e5a 2d3d cc99 8a3d 3f37 78ba 0636 f3bb
000000f0: 5b44 4cbb 5f16 873d 269e b53d 839a 093d

sequential_1/dense_3/BiasAdd/ReadVariableOp f4 [128]
0.098429 0.059942003 0.082991585 0.09400941 -0.038298856 0.04251112 0.0865754 -0.008425344
0.062311854 0.09454291 0.09749131 -0.015236076 0.016629677 0.08702417 0.08833883 0.07480255
0.09642412 0.07416938 0.07089669 -0.017922161 0.11269184 0.099971674 0.0812905 0.09902852
0.075010695 0.06436932 0.0025514266 0.0703091 0.08850432 0.09186601 0.06781237 0.095906764
0.034695853 0.08466301 0.06545129 0.082059525 0.03633732 0.031491995 0.05562937 0.010179722
0.08501142 0.08625775 0.048220187 0.04496272 0.009314462 0.04965326 -0.00083877926 0.0995168
0.067642 0.089805245 0.086227894 0.0755909 0.08184176 0.1260994 0.104502164 0.06335269
-0.012120399 0.08694504 -0.013195601 -0.022097478 0.08314572 0.029819494 0.10273988 0.054846648
0.0844534 0.04992902 0.0460368 0.10049933 0.06275725 0.07765937 0.09537718 0.08090008
-0.005667035 0.086357445 0.08262488 0.06639766 -0.0029352382 0.084860444 0.045027606 0.06819554
-0.005774531 0.040742077 0.07497396 0.09014487 0.063949525 0.1080116 0.046526413 0.062671915
0.0060779653 0.084181376 0.07923655 0.070010476 0.05253463 0.08049593 0.047916237 0.08898449
0.077793956 0.09577944 0.07931731 0.039608818 0.07638055 0.097576834 0.014239658 0.067527816
0.07638647 0.040356692 0.048348602 0.047229543 0.008690233 0.06720967 0.0961669 0.03469074
0.085664056 0.032733906 0.09812087 0.05579468 0.048212852 0.08432872 0.11260719 0.070363395
0.07953965 0.023734154 0.080873676 0.033088412 0.08690132 0.09905707 0.07854321 0.05476542
00000000: 2595 c93d bf85 753d 7ef7 a93d 0188 c03d
00000010: 43df 1cbd 2420 2e3d 714e b13d 740a 0abc
00000020: b73a 7f3d b79f c13d 86a9 c73d bca0 79bc
00000030: f63a 883c ba39 b23d fdea b43d 1432 993d
00000040: 027a c53d 1ee6 973d 4932 913d 7fd1 92bc
00000050: fbca e63d f3bd cc3d a27b a63d 77cf ca3d
00000060: 359f 993d 10d4 833d d635 273b 38fe 8f3d
00000070: c141 b53d 3f24 bc3d 36e1 8a3d c46a c43d
00000080: 3d1d 0e3d cd63 ad3d 530b 863d d30e a83d
00000090: 71d6 143d c0fd 003d 9fdb 633d d9c8 263c
000000a0: 781a ae3d e7a7 b03d 8882 453d d42a 383d
000000b0: af9b 183c 3761 4b3d 86e1 5bba 77cf cb3d
000000c0: e487 8a3d d0eb b73d 4098 b03d 67cf 9a3d
000000d0: a79c a73d 3320 013e 3b05 d63d 0ebf 813d
000000e0: a394 46bc 3e10 b23d 5d32 58bc c505 b5bc
000000f0: 4e48 aa3d 0348 f43c 4969 d23d e1a6 603d
00000100: e7f5 ac3d 5f82 4c3d 1591 3c3d 98d2 cd3d
00000110: e086 803d e00b 9f3d 1c55 c33d f1ae a53d
00000120: 89b2 b9bb 2cdc b03d 3c37 a93d 7ffb 873d
00000130: 205d 40bb 50cb ad3d de6e 383d 1aaa 8b3d
00000140: 4738 bdbb 2ae1 263d f38b 993d e09d b83d
00000150: f8f7 823d 3035 dd3d 7b92 3e3d 225a 803d
00000160: ab29 c73b 4967 ac3d c646 a23d a761 8f3d
00000170: 8d2e 573d 0ddb a43d d143 443d 803d b63d
00000180: 7052 9f3d 0328 c43d 1d71 a23d db3c 223d
00000190: 686d 9c3d 5dd6 c73d 744d 693c 064c 8a3d
000001a0: 8270 9c3d 0f4d 253d 2f09 463d c473 413d
000001b0: 7b61 0e3c 39a5 893d 27f3 c43d e117 0e3d
000001c0: a370 af3d fd13 063d 98f3 c83d f688 643d
000001d0: d77a 453d 89b4 ac3d 999e e63d af1a 903d
000001e0: afe5 a23d 216e c23c 19a1 a53d b787 073d
000001f0: 52f9 b13d 6fde ca3d 43db a03d b451 603d

sequential_1/dense_3/MatMul f4 [128, 3]
-0.10546571 0.18330789 0.13366292 0.121187024 0.26611164 0.19090813 -0.27188775 0.12916194
-0.13065936 0.27121386 -0.1181454 0.034192447 0.18823265 0.28185168 0.08216788 -0.3040697
-0.038199533 0.13404875 0.2331508 0.04097724 0.056594666 -0.104646936 -0.33020955 0.027074162
0.20119934 0.19534987 0.12344818 -0.13388762 0.17065021 0.1548626 0.20135547 0.2931574
-0.12734716 -0.1887361 -0.15232086 0.012289105 -0.25113407 -0.0628972 -0.0062869666 -0.11453765
0.31556848 -0.07682528 0.29932454 0.008554706 0.19596085 -0.22917031 -0.14542867 0.041591514
0.23513252 -0.21276551 0.21792401 -0.22993506 -0.001273183 -0.13191535 0.07308197 0.22425377
0.2811809 -0.09575261 -0.07937387 -0.13752931 0.27877432 0.19747773 0.106645726 0.2650858
0.35133827 0.15527564 -0.1820455 -0.19102474 0.2836358 0.27139553 -0.18091404 -0.15920778
-0.101344906 -0.122658074 0.2091129 0.17180942 -0.05136503 0.25487843 -0.29121703 -0.029738264
0.17913271 -0.055963933 0.3117456 -0.014176492 0.079598784 0.23389116 0.18018954 0.14829049
-0.27718925 0.08166423 -0.26830512 -0.22600135 0.07015492 -0.25296828 -0.26839784 -0.13761379
0.13897827 0.13553087 -0.22473414 0.12479554 0.175388 -0.098040365 0.057502437 0.33124802
-0.15856886 0.10471842 -0.03981136 0.30720267 0.20428045 0.19782744 0.26519263 -0.11013951
-0.01889349 -0.19832796 0.099813074 -0.010885797 -0.22522067 0.13316204 -0.15794207 0.00785401
-0.16587166 -0.27811193 -0.12925826 -0.14353754 0.11461551 -0.025258783 -0.27618602 -0.1598191
0.108265705 0.17971404 0.032591533 0.28650102 -0.18585931 -0.2274213 0.09392099 -0.31908083
-0.103324234 0.128807 0.19648318 0.06647935 -0.23739141 0.036991257 -0.13457344 0.22002356
0.19781373 0.0011402579 -0.06117979 -0.22333866 0.1892164 -0.052722972 -0.09062455 -0.07214312
0.25885263 -0.21538748 -0.005814391 0.03009311 0.09149001 -0.24090876 0.2319553 0.1573119
0.18555053 0.012094226 -0.13480234 0.08279405 0.13817412 0.082666926 -0.15741263 -0.06678778
0.036980674 -0.22240117 -0.003981933 0.12060445 0.16145283 -0.11141367 0.17527214 0.02168467
-0.03880153 0.11239599 0.039894823 -0.09940892 -0.24499382 0.15946236 0.028457655 -0.28927398
0.17846231 0.15955749 0.17843927 -0.14022869 -0.013922447 -0.26110947 -0.058597453 0.085578255
-0.19806404 -0.04135526 -0.18400952 0.10171397 -0.28006738 -0.062229183 0.002568239 0.28135276
-0.108431235 0.22122958 -0.16721767 0.029375842 0.10754317 -0.061414618 0.22819416 -0.04253854
0.22774088 -0.07580314 -0.16394244 -0.20884891 0.26001915 0.16933586 0.28369635 0.2277989
-0.0735502 -0.15867852 -0.0032895226 -0.0613903 0.15420689 0.02245995 -0.22007574 -0.21715792
-0.12598123 0.22642283 0.028698772 0.23672001 -0.068914525 0.28810483 0.051273804 0.103543125
-0.14815779 0.22104229 0.12465586 -0.21952233 -0.07095916 -0.22301875 0.052674644 -0.076047145
0.072229475 -0.24970895 0.047270447 -0.28522146 -0.11694785 0.11850447 -0.20034947 0.13678363
0.030950097 -0.0887234 -0.116528235 0.1723723 0.09244942 -0.20146538 -0.055632394 -0.22190902
00000000: 68fe d7bd 10b5 3b3e efde 083e e730 f83d
00000010: c93f 883e 6c7d 433e df34 8bbe 0743 043e
00000020: 91cb 05be 8bdc 8a3e 37f6 f1bd 610d 0c3d
00000030: 0fc0 403e dd4e 903e a247 a83d 06af 9bbe
00000040: 1d77 1cbd 1344 093e 15bf 6e3e c0d7 273d
00000050: cfcf 673d 2251 d6bd 3a11 a9be a2ca dd3c
00000060: 3307 4e3e cc09 483e 66d2 fc3d d619 09be
00000070: eebe 2e3e 4d94 1e3e 2130 4e3e ba18 963e
00000080: 4b67 02be 0944 41be 00fa 1bbe 3e58 493c
00000090: a594 80be 3fd0 80bd e602 cebb b792 eabd
000000a0: 3192 a13e 9356 9dbd 1141 993e 0a29 0c3c
000000b0: f6a9 483e 9fab 6abe 41eb 14be dd5b 2a3d
000000c0: 94c6 703e 34df 59be 7927 5f3e 1974 6bbe
000000d0: efe0 a6ba d114 07be 00ac 953d c8a2 653e
000000e0: f1f6 8f3e f219 c4bd c48e a2bd 7cd4 0cbe
000000f0: 82bb 8e3e 9a37 4a3e 1369 da3d 53b9 873e
00000100: 9ce2 b33e 9400 1f3e 236a 3abe fd9b 43be
00000110: b638 913e 5bf4 8a3e 8841 39be 5d07 23be
00000120: eb8d cfbd 2834 fbbd b121 563e cfee 2f3e
00000130: 2364 52bd 6d7f 823e 661a 95be a99d f3bc
00000140: 916e 373e 703a 65bd 1f9d 9f3e 8444 68bc
00000150: b004 a33d 2a81 6f3e 9b83 383e 76d9 173e
00000160: c0eb 8dbe 933f a73d 4a5f 89be e66c 67be
00000170: 62ad 8f3d 0f85 81be 716b 89be a1ea 0cbe
00000180: 5250 0e3e 9bc8 0a3e b520 66be ce94 ff3d
00000190: e998 333e 63c9 c8bd ad87 6b3d 5799 a93e
000001a0: e05f 22be 9c76 d63d 3d11 23bd ab49 9d3e
000001b0: e52e 513e 4793 4a3e 54c7 873e d390 e1bd
000001c0: 85c6 9abc 7c16 4bbe cc6a cc3d 585a 32bc
000001d0: 3fa0 66be a15b 083e 91bb 21be 1bae 003c
000001e0: 43da 29be b064 8ebe 475c 04be 81fb 12be
000001f0: 89bb ea3d 82eb cebc 4168 8dbe 9ea7 23be
00000200: 69ba dd3d f506 383e b37e 053d 43b0 923e
00000210: e751 3ebe 21e1 68be a659 c03d 905e a3be
00000220: a89b d3bd fbe5 033e e332 493e 5326 883d
00000230: bc16 73be 2584 173d 9fcd 09be db4d 613e
00000240: af8f 4a3e b574 953a a997 7abd e4b2 64be
00000250: f2c1 413e 0bf4 57bd 5d99 b9bd c6bf 93bd
00000260: 5588 843e 898e 5cbe a686 bebb d385 f63c
00000270: 1d5f bb3d c9b0 76be b185 6d3e 5f16 213e
00000280: f500 3e3e dc26 463c a009 0abe ed8f a93d
00000290: 847d 0d3e 474d a93d c730 21be 08c8 88bd
000002a0: 0c79 173d 22bd 63be e07a 82bb 77ff f63d
000002b0: e453 253e da2c e4bd 8a7a 333e 0da4 b13c
000002c0: 5aee 1ebd de2f e63d c168 233d e796 cbbd
000002d0: a9df 7abe 1a4a 233e 0720 e93c b81b 94be
000002e0: d3be 363e 0a63 233e c9b8 363e 1c98 0fbe
000002f0: fa1a 64bc 24b0 85be e203 70bd a743 af3d
00000300: 4dd1 4abe 2264 29bd fe6c 3cbe 6a4f d03d
00000310: fe64 8fbe 07e4 7ebd e74f 283b 780d 903e
00000320: 3211 debd 028a 623e 1c3b 2bbe 9ba5 f03c
00000330: 983f dc3d e58d 7bbd bbab 693e e43c 2ebd
00000340: e834 693e ad3e 9bbd 87e0 27be 7ddc 55be
00000350: 3b21 853e 6166 2d3e a640 913e 1d44 693e
00000360: 7da1 96bd 9f7c 22be 0895 57bb 6574 7bbd
00000370: 69e8 1d3e eefd b73c 895b 61be a55e 5ebe
00000380: 3901 01be 63db 673e b019 eb3c bb66 723e
00000390: 0f23 8dbd 7a82 933e 7b04 523d 6b0e d43d
000003a0: adb6 17be e958 623e 924b ff3d 76ca 60be
000003b0: 0953 91bd 075f 64be 5ec1 573d 9bbe 9bbd
000003c0: 0ced 933d b4b3 7fbe a89e 413d 8c08 92be
000003d0: 5b82 efbd 79b2 f23d 6928 4dbe 0211 0c3e
000003e0: 0f8b fd3c 9db4 b5bd 5ba6 eebd 5d82 303e
000003f0: 1f56 bd3d f14c 4ebe cbde 63bd 1e3c 63be

sequential_1/dense_4/MatMul f4 [64, 128]
0.2001611 -0.028976012 0.12794636 0.16934569 0.100028254 0.029598387 0.2286002 0.13639814
-0.033803046 0.060012087 0.08636929 -0.053947397 -0.21988468 -0.030972878 0.032143436 0.07005422
-0.03664639 -0.08139562 0.058848564 0.15866272 0.0716606 0.19258833 -0.24315493 0.168072
-0.14993449 -0.030934358 -0.016269004 -0.027786836 0.021724757 0.10258257 -0.16044256 -0.09114155
0.19561645 -0.0047161113 0.23443721 -0.13587523 0.14684768 -0.014689731 0.18297134 0.061974272
-0.13232718 -0.076172575 -0.14329821 -0.11937048 -0.010311385 -0.039131396 -0.031673107 -0.016627328
0.1013779 0.05964085 0.041719235 0.03738913 -0.07916409 0.1468953 0.035034705 0.055347823
0.04863894 0.18517655 0.0056409147 0.21367964 0.167177 0.10350122 0.091066495 0.04022666
0.020171812 -0.10081621 0.1729745 0.13016681 -0.040542405 0.22920421 0.07291614 0.22731145
-0.0110710515 -0.06407447 0.14131233 0.08014071 -0.030980382 -0.049977027 0.07264249 0.08531828
-0.16006586 -0.22975989 0.045458492 -0.2137401 -0.08271249 0.094303645 0.08737774 0.036217574
-0.029921208 0.14442347 -0.08938543 -0.047658965 -0.028631475 -0.07785659 -0.08908985 -0.20484853
0.075288914 -0.1429936 0.01331068 -0.08625556 -0.0055556954 0.08472443 0.03978199 -0.050838463
0.1342876 -0.088505164 -0.24397491 -0.12181463 0.03394443 0.053856242 -0.06650013 0.07207068
0.06288179 -0.0076600546 0.049380485 0.075546935 0.031417973 0.14005671 -0.14631465 0.0021466485
-0.18500695 0.13057095 0.10007236 -0.08559761 0.20382652 0.05330294 0.15892953 -0.016243689
0.031047063 0.026837254 -0.21506706 0.21121362 0.118631855 -0.027806494 -0.21290235 -0.0061450535
-0.052700404 -0.06169605 -0.17585419 -0.07554955 -0.036370996 -0.17646126 -0.04468656 0.020167522
0.21810216 -0.12506768 -0.17205204 -0.04916173 -0.06421397 -0.17849475 -0.085584156 0.11451903
-0.058887333 -0.1471647 0.02989069 -0.26117015 -0.29526865 0.1882091 0.20167762 0.107034594
-0.09121298 -0.029480694 -0.045488782 0.1301358 -0.08951795 -0.17285547 0.03838573 -0.08957859
0.0069617103 -0.046023834 0.2504044 -0.06431981 0.11831591 0.09421375 0.011643776 0.090389684
-0.13337831 0.012128959 -0.08924245 0.104541324 0.14501236 -0.10951175 -0.09166961 0.18541345
-0.06154402 0.036180377 -0.16252041 -0.0775183 -0.10592601 -0.12871075 0.11904885 -0.052526884
-0.067715034 0.14956282 -0.025573058 0.14792703 0.15121579 -0.0008448066 0.003991974 -0.2155936
-0.060790703 -0.093834914 0.18449926 -0.023543147 -0.17035404 0.24763638 0.15882581 0.08255605
0.025018835 0.20016627 -0.16896142 0.1286323 0.24253997 0.050978407 -0.039618045 0.13862216
-0.057634614 -0.22471333 0.06391768 0.2420688 -0.26494616 0.08240981 0.05604049 0.13196057
-0.24537972 -0.07096829 0.15634884 0.21316852 -0.079445034 -0.32953063 -0.05094649 0.13896328
-0.00688872 -0.047044385 0.0023990762 0.0060351216 0.11373651 0.028106002 0.10118446 0.014336881
0.0069250134 -0.1301596 0.24336374 -0.09385868 -0.024476888 -0.28562036 -0.056372125 0.20435338
0.12039154 0.066852234 -0.08124585 0.02846888 -0.116380885 -0.29318622 0.071001895 0.182984
00000000: 08f7 4c3e 1a5f edbc 5f04 033e f568 2d3e
00000010: 9ddb cc3d 5178 f23c 2c16 6a3e f4ab 0b3e
00000020: 1075 0abd 3ccf 753d 62e2 b03d f2f7 5cbd
00000030: 7329 61be d5ba fdbc d6a8 033d 9678 8f3d
00000040: 861a 16bd bfb2 a6bd 310b 713d 7b78 223e
00000050: cbc2 923d e035 453e 9bfd 78be 111b 2c3e
00000060: 6d88 19be 0d6a fdbc 9346 85bc 38a1 e3bc
00000070: 1ef8 b13c cf16 d23d 0e4b 24be 6ca8 babd
00000080: ae4f 483e 9c89 9abb 4f10 703e e022 0bbe
00000090: 3d5f 163e 33ad 70bc d75c 3b3e bcd8 7d3d
000000a0: c780 07be 5e00 9cbd c4bc 12be 8378 f4bd
000000b0: 15f1 28bc 3e48 20bd a9bb 01bd 0936 88bc
000000c0: 379f cf3d f749 743d cae1 2a3d 5825 193d
000000d0: c820 a2bd b96b 163e 8d80 0f3d 66b4 623d
000000e0: a039 473d ec9e 3d3e 6cd7 b83b d6ce 5a3e
000000f0: 7330 2b3e 73f8 d33d 1281 ba3d b6c4 243d
00000100: 5b3f a53c bb78 cebd 3a20 313e 734a 053e
00000110: cb0f 26bd 82b4 6a3e 0f55 953d 55c4 683e
00000120: 5b63 35bc 7a39 83bd 2eb4 103e d020 a43d
00000130: 92ca fdbc b6b4 4cbd 96c5 943d 5abb ae3d
00000140: 4ee8 23be 2d46 6bbe af32 3a3d afde 5abe
00000150: 2a65 a9bd 4522 c13d 1af3 b23d e158 143d
00000160: 521d f5bc bfe3 133e b50f b7bd 0c36 43bd
00000170: 8e8c eabc 4773 9fbd bd74 b6bd d0c3 51be
00000180: 1331 9a3d ea6c 12be 0a15 5a3c c1a6 b0bd
00000190: 8d0c b6bb 0184 ad3d 71f2 223d fe3b 50bd
000001a0: b082 093e 3242 b5bd 8fd4 79be f379 f9bd
000001b0: 5109 0b3d 5d98 5c3d 3831 88bd cb99 933d
000001c0: 2bc8 803d 3201 fbbb 3143 4a3d 5ab8 9a3d
000001d0: 22b0 003d 076b 0f3e 82d3 15be c9ae 0c3b
000001e0: 7672 3dbe 64b4 053e bdf2 cc3d cd4d afbd
000001f0: e6b7 503e 2f54 5a3d 6cbe 223e 7c11 85bc
00000200: 6956 fe3c cdd9 db3c 8a3a 5cbe 6248 583e
00000210: 42f5 f23d 72ca e3bc 1303 5abe 725c c9bb
00000220: 61dc 57bd ffb4 7cbd 1f13 34be b9b9 9abd
00000230: c1f9 14bd 43b2 34be 4109 37bd 5c36 a53c
00000240: 2c56 5f3e be11 00be 692e 30be cf5d 49bd
00000250: 9d82 83bd 54c7 36be bf46 afbd f488 ea3d
00000260: d833 71bd 58b2 16be 52dd f43c 18b8 85be
00000270: 742d 97be e3b9 403e 9484 4e3e f434 db3d
00000280: dfcd babd 7f81 f1bc 7252 3abd 5242 053e
00000290: 3055 b7bd 0601 31be 5b3a 1d3d fb74 b7bd
000002a0: 0f1f e43b 7d83 3cbd 0135 803e 1bba 83bd
000002b0: 9d4f f23d 23f3 c03d 89c5 3e3c 3a1e b93d
000002c0: 5394 08be 8bb8 463c bfc4 b6bd c319 d63d
000002d0: 1f7e 143e b247 e0bd 47bd bbbd 06dd 3d3e
000002e0: 9515 7cbd e031 143d c06b 26be eac1 9ebd
000002f0: bcef d8bd c0cc 03be e2cf f33d 6e26 57bd
00000300: 2eae 8abd ff26 193e 977e d1bc 2f7a 173e
00000310: 50d8 1a3e 0376 5dba 1bcf 823b 92c4 5cbe
00000320: acff 78bd 852c c0bd 60ed 3c3e 8fdd c0bc
00000330: 4a71 2ebe 6494 7d3e 3ca3 223e 2513 a93d
00000340: 4df4 cc3c 63f8 4c3e 3904 2dbe 30b8 033e
00000350: 665c 783e bcce 503d 8846 22bd f8f2 0d3e
00000360: 4612 6cbd 401b 66be 46e7 823d e2e0 773e
00000370: 06a7 87be 79c6 a83d b68a 653d ac20 073e
00000380: d244 7bbe d357 91bd e919 203e d948 5a3e
00000390: 14b4 a2bd 3db8 a8be 44ad 50bd 644c 0e3e
000003a0: c6ba e1bb 9db1 40bd d239 1d3b 45c2 c53b
000003b0: b0ee e83d 8f3e e63c cc39 cf3d 3de5 6a3c
000003c0: 39eb e23b 8f48 05be 5834 793e fb38 c0bd
000003d0: c183 c8bc d53c 92be 75e6 66bd 0342 513e
000003e0: d78f f63d d3e9 883d 3964 a6bd 9237 e93c
000003f0: 1a59 eebd 811c 96be 7169 913d 2860 3b3e

sequential_1/dense_5/MatMul f4 [5, 64]
0.2876792 -0.0026890407 -0.34551927 -0.2196673 0.1320742 -0.38541424 0.12158631 -0.071302585
-0.09061363 -0.08989612 -0.33740652 -0.29140306 0.013299127 -0.1412691 0.38590124 0.34822688
0.09662974 -0.3120063 -0.32673132 0.10249996 0.27662346 -0.39213577 -0.28978214 -0.18481374
0.33435065 -0.24912953 -0.3493409 -0.39728045 0.23789936 -0.30172935 0.2495423 -0.2421057
0.33344468 0.27417985 -0.41545647 0.32791263 0.19173752 0.09042469 0.17389716 0.1766368
-0.35840586 0.39451465 0.057375837 -0.26740777 -0.106465146 0.061272457 0.39963448 0.28816304
-0.27212164 -0.2970566 -0.3351132 0.053289495 0.09905576 0.34268907 0.26538286 -0.26020718
0.26440713 -0.25254926 0.28670257 -0.19680391 0.35410577 0.19391856 -0.026770568 0.13690758
-0.16861145 0.38441285 -0.35640627 -0.22097337 0.29211688 0.042383213 -0.27639696 0.2920383
-0.1793674 0.32915395 -0.23430139 -0.23388706 0.25074148 0.28209102 0.13216572 -0.10443488
-0.29695934 0.14063062 0.29654795 -0.21171391 0.07738704 -0.40650254 0.19510448 -0.16717748
-0.40565968 0.24155046 -0.28572017 0.039981194 0.032422666 0.10900811 0.12492255 0.36118788
-0.31806472 0.11944687 0.20357768 -0.34632888 -0.25129735 0.24739455 0.12647447 0.24314542
-0.3478475 -0.32869554 0.3161715 -0.3644789 -0.24899325 -0.18525144 -0.17925541 0.16201578
0.3010304 0.2106094 0.060435675 0.16286749 0.31497145 -0.22805619 -0.061977044 -0.1267324
-0.37275267 -0.4347912 0.2631055 0.009285961 0.08225167 -0.2127131 0.041733537 0.22168009
-0.0741333 -0.105789706 0.34363222 0.13701275 0.29390872 -0.32200697 0.0848482 0.032544293
-0.2523837 -0.13570675 0.32591656 0.3849179 -0.0025680284 -0.111884445 0.32845575 -0.22659118
0.0075973575 -0.32983878 0.13459082 -0.19505337 0.1427825 -0.3494632 -0.3448991 0.24808162
0.08352986 0.01897449 -0.16187492 -0.45977977 -0.27336565 -0.38797373 -0.36492947 0.0029142576
0.1959344 0.31607392 -0.49912342 -0.3269004 0.33846444 0.037683807 -0.27726766 -0.12782235
0.3044676 -0.25619134 0.36466688 0.18687104 -0.41568556 -0.09248751 -0.07552667 -0.034476254
0.37075827 0.33724362 0.17354491 -0.101869464 0.25833118 -0.039035816 0.3208793 -0.40768874
-0.016930185 -0.15886834 -0.015108253 -0.19504264 -0.32320398 -0.24533467 0.03818472 0.29248554
0.2359893 -0.36762488 -0.40681955 0.030844428 -0.3823105 -0.036080893 -0.0083236955 0.24271892
0.18561962 0.3270954 -0.18898389 -0.058920465 -0.24969253 -0.08320509 -0.23396114 -0.11858775
0.11174382 0.22682086 -0.30246416 0.16163495 -0.2672372 0.2021313 0.25158358 -0.27562457
-0.09244436 -0.18567784 0.069957115 0.23569527 -0.15638682 0.30354863 0.22812845 -0.10407738
0.1961128 0.12337659 0.09625151 0.0366692 -0.13517171 0.12418933 0.13328733 0.19189082
-0.1574601 0.3449355 -0.14092003 0.36516842 0.30240992 -0.054644164 -0.15853797 -0.27571717
0.023595005 -0.12225405 -0.20063034 -0.2757408 -0.19253668 0.10909649 -0.12931734 -0.093183056
-0.20018815 -0.087763436 -0.020970382 0.035929594 -0.35838094 0.30982193 0.20418854 -0.2713465
00000000: b04a 933e 9e3a 30bb e7e7 b0be 77f0 60be
00000010: 763e 073e 0455 c5be 3e02 f93d 1707 92bd
00000020: a493 b9bd 751b b8bd 8cc0 acbe c832 95be
00000030: 95e4 593c d9a8 10be d994 c53e cb4a b23e
00000040: d0e5 c53d 4abf 9fbe 5449 a7be 80eb d13d
00000050: 97a1 8d3e 05c6 c8be 535e 94be d03f 3dbe
00000060: 0230 ab3e d01b 7fbe cfdc b2be 5868 cbbe
00000070: e49b 733e 457c 9abe 0488 7f3e 8eea 77be
00000080: 43b9 aa3e 4d61 8c3e b6b6 d4be 2ae4 a73e
00000090: d756 443e 9430 b93d 1912 323e 47e0 343e
000000a0: f980 b7be d3fd c93e ed02 6b3d ace9 88be
000000b0: 660a dabd d4f8 7a3d e49c cc3e 1b8a 933e
000000c0: 8753 8bbe cd17 98be f593 abbe 1646 5a3d
000000d0: bfdd ca3d f174 af3e 43e0 873e e039 85be
000000e0: 5f60 873e 234e 81be aeca 923e f786 49be
000000f0: 5a4d b53e 9692 463e f34d dbbc 8031 0c3e
00000100: 7ba8 2cbe c3d1 c43e e27a b6be d846 62be
00000110: 5890 953e 059a 2d3d e783 8dbe 0b86 953e
00000120: 16ac 37be de86 a83e b4ec 6fbe 1780 6fbe
00000130: 3061 803e 3c6e 903e 7356 073e f4e1 d5bd
00000140: 0e0b 98be 7901 103e 22d5 973e 88cb 58be
00000150: 197d 9e3d 1a21 d0be 78c9 473e 9330 2bbe
00000160: a0b2 cfbe 0159 773e ea49 92be 52c3 233d
00000170: a1cd 043d a53f df3d 65d7 ff3d 9eed b83e
00000180: 61d9 a2be 90a0 f43d ab76 503e 0552 b1be
00000190: 0caa 80be ff54 7d3e 8682 013e 1dfb 783e
000001a0: 1119 b2be c84a a8be 3be1 a13e fa9c babe
000001b0: 16f8 7ebe 8eb2 3dbe bb8e 37be 77e7 253e
000001c0: a820 9a3e fea9 573e 668b 773d bcc6 263e
000001d0: f043 a13e 9087 69be a4db 7dbd 23c6 01be
000001e0: 70d9 bebe f49c debe c4b5 863e 2524 183c
000001f0: 9073 a83d 76d1 59be c9f0 2a3d 1b00 633e
00000200: 33d3 97bd 46a8 d8bd 90f0 af3e 124d 0c3e
00000210: 347b 963e 19de a4be e5c4 ad3d 2a4d 053d
00000220: 7038 81be b6f6 0abe 89de a63e f613 c53e
00000230: 5e4c 28bb ac23 e5bd 5a2b a83e 8507 68be
00000240: 41f3 f83b a1e0 a8be 2dd2 093e 12bc 47be
00000250: 9335 123e d7ec b2be 9d96 b0be 1c09 7e3e
00000260: b411 ab3d 6470 9b3c 8ac2 25be 4168 ebbe
00000270: 95f6 8bbe 7ea4 c6be 09d8 babe 21fd 3e3b
00000280: 07a3 483e 71d4 a13e 1b8d ffbe 7d5f a7be
00000290: 364b ad3e 565a 1a3d 07f6 8dbe dde3 02be
000002a0: 2de3 9b3e 832b 83be 9eb5 ba3e 1f5b 3f3e
000002b0: bdd4 d4be 176a bdbd baad 9abd f936 0dbd
000002c0: 07d4 bd3e 32ab ac3e c2b5 313e f0a0 d0bd
000002d0: fc43 843e 05e4 1fbd 4b4a a43e 94bc d0be
000002e0: 2cb1 8abc 62ae 22be 9b88 77bc 42b9 47be
000002f0: fe7a a5be 0339 7bbe 9567 1c3d aac0 953e
00000300: 2ea7 713e 5439 bcbe a74a d0be 74ad fc3c
00000310: 34be c3be 8fc9 13bd 1c60 08bc 4f8b 783e
00000320: 1213 3e3e 0c79 a73e fe84 41be 9656 71bd
00000330: 66af 7fbe 6e67 aabd 8293 6fbe 22de f2bd
00000340: f2d9 e43d ba43 683e 95dc 9abe a283 253e
00000350: 50d3 88be 82fb 4e3e 90cf 803e aa1e 8dbe
00000360: 7853 bdbd 5522 3ebe ad45 8f3d 1a5a 713e
00000370: de23 20be ba6a 9b3e 819a 693e 8526 d5bd
00000380: cbd1 483e deac fc3d 831f c53d 7132 163d
00000390: 746a 0abe fa56 fe3d 797c 083e 077f 443e
000003a0: 383d 21be 639b b03e 574d 10be 5bf7 ba3e
000003b0: 79d5 9a3e 8fd2 5fbd c757 22be cd2a 8dbe
000003c0: 504a c13c 5560 fabd 0a72 4dbe e62d 8dbe
000003d0: 5628 45be fb6d df3d c46b 04be c2d6 bebd
000003e0: 1ffe 4cbe 51bd b3bd 14ca abbc e92a 133d
000003f0: b57d b7be fba0 9e3e cd16 513e eeed 8abe
